saved_models/fraud_model_v1.pth (torch, 285373 bytes, 11 tensors)

fc.weight f4 [128, 30]
0	0xbc33a485	-0.0109645175
1	0x3d408d8c	0.04700999
2	0xbe085aa3	-0.13315825
3	0xbe0078e0	-0.1254611
4	0x3e2a1769	0.16610493
5	0x3d9a26b1	0.07526911
6	0xbd22da96	-0.03975924
7	0xbe1ce8d2	-0.15323189
8	0x3d966079	0.073426194
9	0x3e0c3509	0.13692106
10	0x3dd6a5ef	0.10480868
11	0x3dfbe55c	0.12299606
12	0x3e28ddf3	0.16490917
13	0x3dfcd5c1	0.12345458
14	0x37dbd1bf	2.6204505e-05
15	0xbdba6a7f	-0.09102344
16	0x3d4df845	0.050285596
17	0x3e1046e2	0.1408954
18	0x3ddad5f4	0.106853396
19	0xbe148774	-0.14504796
20	0xbe0bc180	-0.13648033
21	0xbdfd0548	-0.12354523
22	0xbc8a6046	-0.01689161
23	0xbdf8277c	-0.12116906
24	0xbe2225c9	-0.15834726
25	0xbd7bf100	-0.061509132
26	0x3d26bccb	0.04070739
27	0xbe0b3f04	-0.13598257
28	0x3e26646b	0.16249244
29	0xbd848797	-0.06471174
30	0xbcb26810	-0.021778136
31	0x3dd228f7	0.1026172
32	0xbdc43e20	-0.09582162
33	0x3df94dc6	0.12173037
34	0x3c442d48	0.0119736865
35	0xbdf5a27c	-0.11993882
36	0x3e23640f	0.15956138
37	0xbdf261a4	-0.1183503
38	0xbd62fffa	-0.0554199
39	0x3d730653	0.059332203
40	0x3e213467	0.15742646
41	0x3e2aea7d	0.16691013
42	0x3d4616f8	0.04836175
43	0xbe2f49e5	-0.17118032
44	0x3e09ad59	0.13445033
45	0x3e01dc21	0.12681629
46	0x3e1d1ced	0.15343066
47	0x3b96ecf0	0.004605882
48	0x3d85bab2	0.0652975
49	0x3dbf2623	0.09333446
50	0x3d533453	0.051563572
51	0xbd0fa758	-0.0350717
52	0xbcb6bcfa	-0.022306908
53	0x3e2ddc6d	0.16978617
54	0x3e2ab694	0.1667121
55	0x3e13d7ef	0.14437841
56	0xbd55c3bb	-0.052188616
57	0xbe0cfdd4	-0.13768703
58	0xbe1febd1	-0.156173
59	0x3cb4616f	0.022019116
60	0xbe298b90	-0.16557145
61	0xbd510c6d	-0.05103724
62	0xbe0173be	-0.12641808
63	0x3e084849	0.13308825
64	0xbda0a0fa	-0.07843204
65	0xbdc9486d	-0.09828267
66	0x3d7b07b3	0.06128664
67	0xbe1cb209	-0.1530229
68	0x3e11ed4d	0.1425068
69	0xbe359f44	-0.17736536
70	0x3d99fef5	0.07519332
71	0x3e287dca	0.16454235
72	0xbd9f8e86	-0.07790856
73	0x3dd17ca3	0.10228851
74	0xbde34f3e	-0.110990986
75	0x3e1e9cc5	0.1548949
76	0xbda11d5a	-0.078669265
77	0x3dae2722	0.08503558
78	0x3e07d8d3	0.13266306
79	0xbd893770	-0.06700027
80	0x3cbf01ae	0.02331623
81	0x3d6a1226	0.057146214
82	0xbe26742e	-0.16255257
83	0x3ca686bf	0.020327924
84	0x3b18b8eb	0.002330358
85	0xbca386cc	-0.019961737
86	0x3c51e33d	0.0128105255
87	0x3dd40a00	0.1035347
88	0xbe3d9eb9	-0.18517579
89	0x3cc45180	0.023964643
90	0x3e03fa5e	0.12888476
91	0x3d5ebdb4	0.054380134
92	0x3e2d006f	0.16894697
93	0xbdf5b295	-0.119969524
94	0xbcfcae6d	-0.030844891
95	0xbdc10b0b	-0.094259344
96	0xbd1c071c	-0.038092718
97	0x3d8c8427	0.068611436
98	0x3d45b523	0.04826845
99	0x3d622fee	0.05522149
100	0xbe21a404	-0.15785223
101	0xbb932684	-0.0044906754
102	0x3c0c33c0	0.00855726
103	0xbe066e62	-0.13128045
104	0xbe27d9d7	-0.16391693
105	0x3dbdff31	0.092771895
106	0xbc404946	-0.01173622
107	0x3e45463e	0.19265077
108	0x3d3cc9e9	0.046090994
109	0x3dfdfe94	0.124020725
110	0xbcfe4c80	-0.031042337
111	0xbd793249	-0.06083897
112	0x3dadb7a3	0.084822915
113	0x3d8c99b2	0.068652526
114	0xbc21dbd3	-0.00987907
115	0x3e3e6931	0.18594815
116	0xbd6e7d34	-0.05822487
117	0x3d136758	0.03598723
118	0xbe2360db	-0.15954916
119	0x3b1799e7	0.0023132504
120	0x3e27a049	0.16369738
121	0x3e1cbaaf	0.15305589
122	0x3d8a8285	0.06763176
123	0xbd45bfee	-0.04827874
124	0x3c853968	0.016262725
125	0x3ded60a4	0.11590698
126	0xbd9f28bb	-0.077714406
127	0x3da5a5ca	0.080882624
128	0xbc0be33a	-0.008538062
129	0xbd6095d4	-0.054830387
130	0x3c9dec57	0.019277735
131	0xbce2e9e6	-0.027699422
132	0xbe2538ca	-0.16134945
133	0xbdde39aa	-0.10850842
134	0x3c90a5ac	0.017657124
135	0x3d0193e8	0.031635195
136	0xbd64f03a	-0.05589316
137	0x3dc8e76c	0.09809765
138	0xbe28263d	-0.16420837
139	0x3c060d3f	0.008181869
140	0x3cd16b5c	0.025563888
141	0xbe2c2f71	-0.16814972
142	0xbc5d26b8	-0.013498001
143	0xbda9a2b5	-0.08282987
144	0x3de6a6cc	0.11262283
145	0x3e25572a	0.16146532
146	0x3d5a1c67	0.053249743
147	0x3e0c8754	0.13723499
148	0xbde4e53a	-0.11176534
149	0xbde8edda	-0.113734916
150	0x3c6a5827	0.014303244
151	0x3e273269	0.16327824
152	0xbc4b5f17	-0.012412808
153	0x3e1899b1	0.14902379
154	0x3e2654e4	0.1624332
155	0x3da7bd39	0.08190388
156	0xbc5bb358	-0.013409458
157	0x3dfe14f5	0.12406341
158	0x3e06a93a	0.13150492
159	0x3dced9ea	0.101001576
160	0xbd1b67b4	-0.037940696
161	0x3e1947be	0.14968774
162	0x3e1e0965	0.15433271
163	0xbddff1d7	-0.10934799
164	0xbe08dfec	-0.1336667
165	0x3d889fd8	0.06671113
166	0xbdfa5ce8	-0.12224752
167	0x3d51dd2e	0.051236324
168	0xbe216b84	-0.1576367
169	0x3d93655e	0.07197069
170	0xbc82de58	-0.015975162
171	0xbdfa95bf	-0.12235593
172	0x3d6b8a99	0.057505224
173	0x3e0dfcab	0.13865916
174	0x3e0fda8e	0.14048216
175	0xbd45a294	-0.04825075
176	0x3dedce88	0.11611658
177	0xbdb8d6ed	-0.09025369
178	0x3de530bc	0.11190936
179	0x3d666fc6	0.05625894
180	0x3c34eb51	0.011042432
181	0x3e3a32ab	0.18183391
182	0x3e0ab431	0.135453
183	0xbceb44d3	-0.028719341
184	0xbcfd2fd0	-0.030906588
185	0x3ca54472	0.020174239
186	0xbe15696b	-0.14590995
187	0xbdff9153	-0.1247889
188	0x3d4e7a0b	0.050409358
189	0xbd8db4ff	-0.06919288
190	0xbe17b192	-0.14813831
191	0xbd926b1c	-0.07149336
192	0x3d8fce17	0.070217304
193	0xbb9c2150	-0.0047647133
194	0x3def1ca7	0.11675387
195	0xbbb2181a	-0.005435002
196	0x3e2f4ccc	0.1711914
197	0xbe2561e6	-0.16150627
198	0xbd95a250	-0.07306349
199	0x3d27d985	0.040978927
200	0x3d914c1e	0.07094596
201	0xbd587b34	-0.05285187
202	0x3da2649c	0.07929346
203	0x3be7c84e	0.0070734387
204	0x3dc4530b	0.09586152
205	0xbd2fb40d	-0.04289632
206	0x3e191c70	0.14952254
207	0x3dfcc6ba	0.123425916
208	0x3dc3cff4	0.09561148
209	0x3d99abdd	0.075034834
210	0x3e3d01d2	0.18457726
211	0x3e02fa31	0.12790753
212	0xbdab56e8	-0.083661854
213	0x3c83305e	0.016014274
214	0xbe01dcae	-0.12681839
215	0xbe0cabbd	-0.13737388
216	0xbdeaff4a	-0.11474474
217	0x3d97bcf2	0.07409085
218	0xbd4bac9e	-0.049725167
219	0xbdee70b2	-0.11642589
220	0xbd0d50f0	-0.034501016
221	0xbd88cf7b	-0.06680199
222	0x3e11a90c	0.14224643
223	0x3dd9be35	0.10631982
224	0xbc776244	-0.015099112
225	0xbe227f84	-0.15868956
226	0xbe0bc025	-0.13647516
227	0xbe1799ef	-0.14804815
228	0x3d24de0d	0.040250827
229	0x3d26cab3	0.040720653
230	0x3e1893a3	0.14900069
231	0xbd91357a	-0.07090278
232	0xbe2d265c	-0.16909164
233	0xbe067ded	-0.13133974
234	0xbc4f405e	-0.012649624
235	0xbd948056	-0.07251041
236	0xbdf6837a	-0.12036796
237	0x3bd3861d	0.0064551965
238	0x3dcb63c6	0.0993114
239	0x3e35a089	0.1773702
240	0xbd257e2e	-0.040403537
241	0x3d13484f	0.03595763
242	0xbe184a3e	-0.14872071
243	0x3dc39b20	0.09551072
244	0x3df42790	0.119216084
245	0x3cb7fb41	0.022458674
246	0xbde50d80	-0.111842155
247	0x3e2121a6	0.15735492
248	0xbda8f49a	-0.08249779
249	0xbe23b8bd	-0.15988441
250	0xbd120c22	-0.035656102
251	0xbbbc92ce	-0.005754805
252	0x3dc2e576	0.095164225
253	0x3dbab782	0.091170326
254	0xbe393d4d	-0.1808979
255	0x3c5ba965	0.013407086

fc.bias f4 [128]
0	0x3ddce826	0.10786466
1	0x3da16cee	0.07882105
2	0x3d666acc	0.056254193
3	0x3e25ca5c	0.16190475
4	0x3e076d10	0.13225198
5	0xbd6bf61c	-0.057607755
6	0xbe1bed6e	-0.15227291
7	0x3d19b296	0.03752383
8	0xbe053f7e	-0.13012502
9	0x3e01c72a	0.12673631
10	0xbd44749f	-0.04796278
11	0x3db3131c	0.08743879
12	0xbe1c0e09	-0.15239729
13	0xbdf8a56d	-0.121409275
14	0x3e41f8c8	0.18942559
15	0xbd3c5f4c	-0.04598932
16	0x3d7e3a21	0.062067155
17	0xbe2027f4	-0.15640241
18	0x3da1b9a0	0.07896733
19	0xbdf30eba	-0.11868043
20	0x3e3106c2	0.17287734
21	0xbe02a2ce	-0.12757418
22	0xbba303b1	-0.0049748053
23	0xbe09279c	-0.13394016
24	0xbe4b3901	-0.19845964
25	0xbe1e084c	-0.15432853
26	0x3ded4b1b	0.11586591
27	0xbd87d207	-0.066318564
28	0xbdc78d43	-0.097437404
29	0x3d95a22a	0.07306321
30	0x3e35ba95	0.17746957
31	0x3c5dfb33	0.01354866
32	0xbd6897f1	-0.056785528
33	0x3dce711d	0.100801684
34	0x3b9e544b	0.004831826
35	0xbdca22a8	-0.098698914
36	0xbe35d855	-0.17758305
37	0x3d879936	0.066210195
38	0x3d89e4cf	0.06733095
39	0x3def72a4	0.11691788
40	0xbd930dab	-0.07180341
41	0xbe2b52a6	-0.16730747
42	0xbdbb5fbe	-0.09149121
43	0x3db915f6	0.09037392
44	0x3d09e493	0.03366525
45	0xbe472e0d	-0.1945116
46	0xbe3313dd	-0.17488046
47	0x3d2e3fa8	0.042541176
48	0x3c1489ac	0.009066027
49	0x3cc8639c	0.02446156
50	0x3e260fd1	0.16216971
51	0xbcd92b93	-0.026510036
52	0x3e0f8d77	0.14018808
53	0xbcdfb056	-0.027305763
54	0xbd9c892e	-0.076433524
55	0xbe2fb325	-0.17158182
56	0x3cf4fbbd	0.029905194
57	0x3dc02c61	0.093834646
58	0x3de1596a	0.110033825
59	0xbe244ff2	-0.16046122
60	0x3c90004f	0.017578272
61	0x3d17c0ef	0.03704923
62	0x3e2f546d	0.1712205
63	0x3c8c8f46	0.017158162
64	0x3dc7b896	0.09752004
65	0x3e2689bd	0.1626348
66	0xbdba3123	-0.09091403
67	0xbe32ae9b	-0.17449419
68	0x3e052dc6	0.13005742
69	0xbd65d180	-0.056107998
70	0xbb257de3	-0.0025252036
71	0xbe34c0c2	-0.17651656
72	0xbe256c66	-0.16154632
73	0xbd0d7d69	-0.03454343
74	0x3e2f4ebd	0.1711988
75	0xbe0ced90	-0.13762498
76	0x3e2ab01f	0.16668747
77	0xbdd9ac7e	-0.106286034
78	0x3e10f357	0.14155327
79	0xbd7af47a	-0.061268307
80	0xbe11bda0	-0.14232492
81	0xbd490795	-0.049079496
82	0x3d3e14be	0.0464065
83	0x3d8ad7c8	0.06779438
84	0x3ceee373	0.02916119
85	0x3da5a141	0.08087397
86	0xbd1b873b	-0.037970763
87	0x3c5eac1e	0.013590841
88	0xbd7e76b0	-0.062124908
89	0x3d44620a	0.04794506
90	0x3aaf8221	0.0013390222
91	0xbdcdb1f2	-0.10043706
92	0x3d7d50cc	0.061844632
93	0xbc885566	-0.016642284
94	0x3d895861	0.0670631
95	0xbe02b96a	-0.12766042
96	0x3d4a4be1	0.04938877
97	0xbdb6b9f7	-0.08922189
98	0x3e22d3ac	0.15901059
99	0xbd9c5f7c	-0.076354
100	0x3d396b26	0.0452682
101	0xbe188a48	-0.148965
102	0xbd85e96c	-0.06538662
103	0xbc95809d	-0.018249804
104	0xbdb7468b	-0.08949002
105	0x3d2c9956	0.04213842
106	0x3e221917	0.15829884
107	0xbe0dcc2d	-0.13847418
108	0xbc095524	-0.0083821155
109	0xbe01a1e3	-0.12659411
110	0x3d71dd6f	0.059049066
111	0x3dd90a3c	0.10597655
112	0x3da6bc9d	0.08141444
113	0x3e014a75	0.1262606
114	0xbdff8420	-0.12476373
115	0xbe38848c	-0.18019313
116	0xbd905047	-0.07046562
117	0x3e0f4edf	0.1399493
118	0x3d97aded	0.074062206
119	0xbe3f5aac	-0.18686932
120	0xbb645e87	-0.0034846382
121	0xbe05c32b	-0.13062732
122	0x3dd75226	0.105137154
123	0xbe22e3d6	-0.15907225
124	0xbd44b3df	-0.0480231
125	0xbd0f6666	-0.035009764
126	0x3cf94381	0.030427696
127	0x3dd8505b	0.105622016

res1.fc1.weight f4 [128, 128]
0	0xbb1a334c	-0.002352911
1	0x3cc891b2	0.024483535
2	0x39ba59aa	0.0003554349
3	0x3cdd609e	0.02702361
4	0x3cea5641	0.028605582
5	0xbca1a898	-0.019733712
6	0xbd662ea7	-0.056196835
7	0xbbe4a1e1	-0.0069773053
8	0xbd814aef	-0.063131206
9	0xbd9ac28a	-0.07556637
10	0xbda6fa5c	-0.08153221
11	0xb8fbfec4	-0.000120160665
12	0xbd19ef94	-0.037581995
13	0x3d3460a8	0.04403749
14	0x3d7421fc	0.059602723
15	0x3d81afb4	0.06332341
16	0xbcaa52ae	-0.020791378
17	0x3b8530c7	0.0040646526
18	0xbd2afef5	-0.041747052
19	0x3d064fc9	0.032790933
20	0x3c2eb234	0.010662604
21	0xbda8d684	-0.082440406
22	0x3cd04eca	0.025428195
23	0x3bd53f07	0.0065077576
24	0x3bd7b90a	0.0065833377
25	0xbd8b26f6	-0.067945406
26	0xbdae74e0	-0.08518386
27	0xbd165cba	-0.036709525
28	0x3d867b18	0.06566447
29	0x3c8d80e7	0.01727338
30	0x3c95093a	0.018192876
31	0xbd28ac7b	-0.041180115
32	0xbd46f8db	-0.04857717
33	0x3d903345	0.07041029
34	0xbd450fbf	-0.04811072
35	0xbd8f454f	-0.069956414
36	0x3d69ba34	0.057062343
37	0xbc9c5759	-0.01908462
38	0x3cf05e1c	0.02934175
39	0xbda1aa6c	-0.078938335
40	0xbcce2bcc	-0.025167368
41	0xbdac8077	-0.0842294
42	0xbd7da740	-0.06192708
43	0xbd61a20f	-0.05508619
44	0xbd418ee5	-0.047255415
45	0x3d4fd4c5	0.050740022
46	0x3bc6bc55	0.0060649314
47	0x3b9f94bd	0.004870026
48	0x3d5c2263	0.05374373
49	0xbd557ae7	-0.052119162
50	0x3d403877	0.04692885
51	0xbd851e04	-0.06499866
52	0xbd58681d	-0.052833665
53	0xbd7c555a	-0.061604835
54	0xbd34398c	-0.044000193
55	0xbad5802c	-0.0016288809
56	0xbd2375f3	-0.039907407
57	0x3d750a23	0.05982412
58	0xbcef2bfa	-0.029195774
59	0x3d36e19b	0.044648748
60	0x3d04a0a9	0.03237978
61	0x3ca39b4e	0.019971516
62	0x3d370d9f	0.044690724
63	0xbd6a169a	-0.05715046
64	0x3d80ba78	0.06285566
65	0x3c2c59ea	0.010519484
66	0x3d6964b3	0.0569808
67	0x3d25a78c	0.04044299
68	0x3d0a096e	0.0337004
69	0xbd368644	-0.04456164
70	0xbd35de30	-0.044401348
71	0x3dad2008	0.08453375
72	0xbdaa39e1	-0.08311821
73	0x3da6b212	0.08139433
74	0x3d063958	0.03276953
75	0xbcb280b0	-0.021789879
76	0x3c65f561	0.014035554
77	0x3d8179e4	0.06322077
78	0x3ca02744	0.019549973
79	0xbc84aa13	-0.016194379
80	0xbc63222f	-0.0138631305
81	0xbcbd7063	-0.02312488
82	0xbd9d2d9b	-0.07674714
83	0xbd74ed7a	-0.059796788
84	0x3d828c74	0.063744456
85	0xbd23cf00	-0.039992332
86	0xbd08dfa3	-0.0334164
87	0x3d4ea0d6	0.050446354
88	0x3d937a2c	0.07201037
89	0x3bc4e61b	0.006008876
90	0x3a8df9a4	0.0010831845
91	0x3bea4c28	0.007150192
92	0xbda64ee6	-0.081205174
93	0xbd9e18dc	-0.07719585
94	0xbd6446f9	-0.055731747
95	0xbba1c5eb	-0.0049369237
96	0xbd86120d	-0.06546412
97	0x3d93bfd9	0.072143264
98	0xbb2f7c70	-0.0026777051
99	0x3d4f63be	0.05063223
100	0x3d1b46a0	0.03790915
101	0xbd3b3144	-0.04570128
102	0xbda9fc19	-0.08300037
103	0xbc56a933	-0.013101864
104	0x3d00277a	0.031287648
105	0xbcda9364	-0.02668161
106	0x3ced558d	0.028971458
107	0x3d3b8493	0.04578073
108	0xbd918a2a	-0.07106431
109	0xbd97e4df	-0.074167006
110	0x3caf40cc	0.021393202
111	0x3ce13a53	0.027493631
112	0x3d72537e	0.059161656
113	0x3d9dad5a	0.0769908
114	0xbc7a4b7f	-0.015276789
115	0x3da11712	0.078657284
116	0xbcc4740a	-0.023981113
117	0x3d238d0a	0.039929427
118	0x3d470ec7	0.048598077
119	0x3bc9370c	0.0061405953
120	0x3d2edc41	0.04269052
121	0x3c239a6c	0.0099855475
122	0x3d073e66	0.033018492
123	0x3d3f12bb	0.046648722
124	0xbd86d634	-0.06583825
125	0x3d2e1d0a	0.042508163
126	0xbc264c3f	-0.010150014
127	0xbc6c5ea9	-0.014426866
128	0x3caf2829	0.021381455
129	0xbd87e64e	-0.06635724
130	0x3dcd876c	0.10035595
131	0x3d130724	0.03589548
132	0xbd43663f	-0.04770493
133	0x3c010a26	0.007875955
134	0x3da63964	0.08116415
135	0xbcf29768	-0.029613212
136	0x3da6c58f	0.0814315
137	0xbc92f0e0	-0.017937124
138	0x3d4b5983	0.049645912
139	0x3c9d47a7	0.019199206
140	0x3b15d6a6	0.0022863536
141	0xbc66827e	-0.014069198
142	0x3da3456c	0.079722255
143	0xbd9a0ba6	-0.07521753
144	0x3d1c4a37	0.038156714
145	0xb976b8fc	-0.000235293
146	0x3dafdb16	0.08586709
147	0x3d6a76d9	0.05724225
148	0x3d9867ac	0.07441649
149	0x3c322145	0.01087219
150	0x3da76172	0.08172883
151	0x3d9c5cf4	0.07634917
152	0x3d630206	0.05542185
153	0xbcfd77fd	-0.030941004
154	0x3db308ca	0.08741911
155	0xbc975005	-0.018470773
156	0x3d8d1f10	0.0689069
157	0xbd77b775	-0.060477693
158	0xbc808c10	-0.015691787
159	0x3c8be177	0.017075283
160	0x3d32bc3a	0.043636538
161	0x3d480f23	0.04884256
162	0xbd49afd2	-0.04923994
163	0x3da652c2	0.081212536
164	0x3c898dd4	0.016791262
165	0x3db8b801	0.09019471
166	0x3d4cdb75	0.050013978
167	0x3dd14a73	0.10219278
168	0x3cb1b840	0.021694303
169	0x3d8efec0	0.069821835
170	0xbbf9413b	-0.007606653
171	0xbd6fddab	-0.05856101
172	0x3d49f03d	0.049301375
173	0x3cbd3d7c	0.023100607
174	0x3d08f282	0.0334344
175	0x3dd10ea9	0.10207874
176	0x3d289f36	0.04116746
177	0x3d79404f	0.060852345
178	0xbd553ae5	-0.05205812
179	0x3d347a4d	0.044061948
180	0x3d1a1a79	0.037622903
181	0xbcecf359	-0.028924631
182	0xbd723c7d	-0.059139717
183	0xbc0a8a41	-0.008455814
184	0xbd978a3f	-0.07399415
185	0xbd93b36b	-0.07211956
186	0x3d5a7df5	0.05334278
187	0xbc3db0d4	-0.011577804
188	0xbc2c1295	-0.010502477
189	0x3d176bae	0.036967926
190	0x3d1a1df2	0.037626214
191	0x3d95caf7	0.07314103
192	0x3d75b21c	0.05998431
193	0x3d168c73	0.036755037
194	0x3cb24ddb	0.02176564
195	0x3dbc311a	0.09189053
196	0x3c2d0e95	0.010562559
197	0x3c2959e4	0.010336373
198	0xbd8f4e06	-0.06997304
199	0x3d2338f0	0.03984922
200	0x3d2de361	0.042453174
201	0x3dcef150	0.101046205
202	0xbd3c60ce	-0.045990758
203	0x3c98235d	0.01857155
204	0xbd4fb2c9	-0.050707612
205	0x3da3ee58	0.08004445
206	0xbbc75066	-0.0060825823
207	0xbc95e3ae	-0.018297043
208	0x3c9bd99e	0.019024666
209	0x3d7dec5d	0.06199299
210	0x3d19ebcd	0.037578393
211	0x3d969a06	0.073535964
212	0x3da1a01b	0.07891866
213	0xbd667918	-0.056267828
214	0x3da639b4	0.08116475
215	0xbd762615	-0.06009491
216	0x3db1df39	0.086851545
217	0x3da4c0b0	0.08044565
218	0x3d842c78	0.06453794
219	0xbd9153b0	-0.0709604
220	0xbc89d71f	-0.01682621
221	0x3d343bbb	0.044002276
222	0xbd2103a6	-0.03931012
223	0x3d6d263e	0.0578978
224	0x3c6bae5c	0.014384832
225	0xbd87e042	-0.06634571
226	0xbc530392	-0.012879269
227	0x3dc451a6	0.09585886
228	0x3c678e1b	0.014133002
229	0xbcdcc787	-0.02695061
230	0x3d80bff6	0.06286614
231	0xbcc51907	-0.024059786
232	0xbd5512f5	-0.052020032
233	0xbbe2ea61	-0.006924913
234	0x3b9eeb0d	0.0048497976
235	0xbce9d7b7	-0.028545244
236	0x3da7ae63	0.081875585
237	0xbbfe5303	-0.0077613606
238	0x3cc15619	0.023600625
239	0xbd6c51c2	-0.057695158
240	0xba9d0cad	-0.0011981927
241	0xbcd22c61	-0.025655927
242	0xbd5976b0	-0.053091705
243	0x3db00dd4	0.085963875
244	0x3ccb2561	0.024798097
245	0x3d0f6e27	0.03501716
246	0x3d18382c	0.037162945
247	0x3da4dbc4	0.080497295
248	0x3d68e4d6	0.05685886
249	0x3cc6dd69	0.024275498
250	0x3d431946	0.047631525
251	0x3dbf700d	0.09347544
252	0x3d2c26f9	0.042029355
253	0xbd7f9b6e	-0.06240409
254	0x3d849505	0.06473736
255	0x3cd05ca4	0.0254348

res1.fc1.bias f4 [128]
0	0xbc8d6d8c	-0.01726415
1	0xbd049878	-0.032371968
2	0x3d8a8956	0.06764476
3	0x3d8ae8bd	0.067826726
4	0x3b6d7109	0.0036230704
5	0xbbc4c939	-0.006005433
6	0x3d4da11e	0.05020248
7	0x3d698e9c	0.05702077
8	0x3d92148d	0.07132826
9	0x3d5c9fb8	0.053863257
10	0x3c8dee3f	0.017325519
11	0xbccbb326	-0.024865698
12	0xbbb8c451	-0.005638637
13	0xbd67c038	-0.0565798
14	0x3d1efc3f	0.03881478
15	0x3d21970f	0.0394507
16	0x3cb1fa79	0.02172588
17	0x3d884142	0.06653072
18	0xbd8ebb9f	-0.0696938
19	0xbbf1df0b	-0.007381325
20	0xbc878eb3	-0.016547536
21	0xbd2cdb80	-0.04220152
22	0x3d78c6d8	0.060736507
23	0x3d455925	0.048180718
24	0x3d61f6c5	0.05516698
25	0xbd0e8bf6	-0.034801446
26	0x3d8be07f	0.068299286
27	0xbd2f3760	-0.04277742
28	0x3c3b018f	0.011413946
29	0x3d37ddea	0.044889368
30	0x3d404cfb	0.046948414
31	0xbcf6c900	-0.030125141
32	0x399d3331	0.00029983514
33	0x3d430092	0.047607966
34	0xbd819881	-0.06327916
35	0xbdc71a68	-0.097218335
36	0xbd9b586d	-0.07585225
37	0x3d97ed06	0.074182555
38	0xba8f8109	-0.001094849
39	0xbdbe3022	-0.09286524
40	0x3c827e8c	0.015929483
41	0xbdc11857	-0.094284706
42	0x3da578b9	0.08079667
43	0x3dd574d9	0.104226775
44	0xbdb8a33b	-0.09015509
45	0xbdd4601e	-0.103698954
46	0x3d8bf183	0.06833174
47	0x3cc5dde1	0.024153652
48	0x3cadda71	0.021222325
49	0x3d825fef	0.06365954
50	0xbda593a1	-0.080847986
51	0x3d5560d6	0.052094303
52	0x3da883a6	0.08228235
53	0x3cd7f6fa	0.026362885
54	0x3d7de5d7	0.06198677
55	0x3dadc90c	0.08485612
56	0x3b848531	0.004044198
57	0x3ba02975	0.0048877546
58	0xbc89b9d2	-0.016812239
59	0xbd2c2567	-0.042027857
60	0x3d3145e7	0.043279555
61	0xbcf1c5e6	-0.02951331
62	0xbd56ca89	-0.052439246
63	0x3ce503a7	0.027955843
64	0x3c7a77b7	0.015287331
65	0x3d78c0c1	0.0607307
66	0x3cd3719c	0.02581101
67	0x3d8ed6b9	0.06974549
68	0xbdaffe3e	-0.08593415
69	0xbd188719	-0.037238214
70	0x3cf38d38	0.029730424
71	0x3d79dad8	0.06099972
72	0x3daf61e8	0.08563596
73	0xbd0d91ad	-0.034562755
74	0xbbfc8578	-0.0077063404
75	0x3d87c66e	0.06629644
76	0xbd573c12	-0.052547522
77	0xbd9c5224	-0.076328546
78	0xbd70d446	-0.05879619
79	0xbc0c7ded	-0.008574945
80	0xbb435095	-0.002980267
81	0xbda05427	-0.07828551
82	0xbd88b488	-0.066750586
83	0x3b90b810	0.004416473
84	0x3b8be571	0.004269295
85	0xbce6809c	-0.028137498
86	0x3bdff528	0.006834645
87	0xbd33f08a	-0.043930568
88	0xbd6ee76a	-0.058326162
89	0xbcb6970d	-0.022288824
90	0x3d8ef984	0.06981185
91	0x3d36059e	0.04443895
92	0xbd2a76d5	-0.041617233
93	0xbd3528f8	-0.044228524
94	0xbcafd72a	-0.021464903
95	0xbd04bc97	-0.032406416
96	0xbcbea7cc	-0.023273371
97	0x3d7d0a7e	0.061777584
98	0xbdc549cd	-0.09633217
99	0x3cda4de5	0.026648471
100	0x3c763059	0.015026175
101	0x3d080787	0.033210304
102	0x3cdeffc7	0.027221574
103	0x3cd70c59	0.026251005
104	0xbc88aae7	-0.016683055
105	0xbdb6189b	-0.08891412
106	0x3dc32e7e	0.09530352
107	0xbda84963	-0.082171224
108	0xbc206c8f	-0.009791507
109	0x3bb2243b	0.005436448
110	0xbd45a756	-0.048255287
111	0xbd8179ca	-0.063220575
112	0x3cddadf5	0.027060488
113	0x3dabcbbe	0.0838847
114	0xbda644b3	-0.08118572
115	0x3c50b3bf	0.012738167
116	0xbd4de86f	-0.050270494
117	0xbd02e21d	-0.03195392
118	0xbd14a7d4	-0.036292866
119	0x3db47d37	0.08812945
120	0x3d6fa16f	0.058503564
121	0x3d1419f3	0.03615756
122	0x3d1b767c	0.037954792
123	0x3d850e41	0.06496859
124	0xbbc133c6	-0.0058960645
125	0xbd9907c3	-0.074721836
126	0xbd0ea57e	-0.034825794
127	0x3d96e3d3	0.07367673

res1.fc2.weight f4 [128, 128]
0	0xbc191cf6	-0.009345284
1	0xbc7d32be	-0.015453992
2	0xbb519bdc	-0.0031983769
3	0xbc7de78d	-0.015497101
4	0xbd0cfe84	-0.034422413
5	0x3d9cb365	0.07651404
6	0x3dafb288	0.08578974
7	0xbda1da2a	-0.079029396
8	0xbd2825ad	-0.041051555
9	0xbdb15573	-0.08658876
10	0x3cd6ee21	0.026236596
11	0xbcdca4e7	-0.0269341
12	0x3c74035c	0.014893379
13	0x3d690ff8	0.056899995
14	0x3db18b5c	0.08669159
15	0xbd6d552d	-0.057942558
16	0xbd398469	-0.04529229
17	0xbd0a75dc	-0.033803806
18	0xbaf38179	-0.0018578015
19	0x3c0d69d5	0.008631189
20	0xbd2b55b6	-0.041829787
21	0x3d3178b9	0.04332802
22	0xbceca9c6	-0.028889548
23	0x3da7df79	0.08196921
24	0x3bcaaa03	0.0061848178
25	0xbbf361be	-0.0074274233
26	0x3da2c91a	0.07948513
27	0x3c7efe82	0.015563609
28	0xbd53ec97	-0.0517393
29	0x3d49428d	0.049135733
30	0xbda61687	-0.081097655
31	0x3cb75637	0.022379978
32	0xbd84f446	-0.06491904
33	0xbd692de4	-0.05692853
34	0xbd4af295	-0.04954775
35	0x3d235fab	0.039886158
36	0x3d55ba36	0.052179538
37	0x3db0f4db	0.086404525
38	0xbda18150	-0.078859925
39	0xbc359a8c	-0.01108421
40	0xbc1073bd	-0.008816657
41	0x3d0ea219	0.034822557
42	0x3d9fc83d	0.07801864
43	0x3cbed8ce	0.02329674
44	0x3d3883f8	0.04504773
45	0xbcb0600a	-0.02153017
46	0xbd992c26	-0.07479124
47	0x3cb4d029	0.022071915
48	0x3d63fb00	0.055659294
49	0x3d0519ee	0.03249543
50	0x3d6b18a1	0.057396535
51	0xbc8230cb	-0.015892407
52	0x3d830948	0.06398255
53	0xbd1b56ef	-0.037924703
54	0x3cf368f9	0.02971314
55	0x3d133274	0.035936788
56	0xbd6eddda	-0.058317043
57	0xbc9ef024	-0.019401617
58	0xbd89a2a7	-0.067204766
59	0xbc422f20	-0.011852056
60	0xbd8a64e1	-0.067575224
61	0xbd811d72	-0.063044444
62	0x3c86e756	0.016467731
63	0xbce42bfe	-0.027853008
64	0x3d683313	0.056689333
65	0xbd8c1380	-0.06839657
66	0x3d9957f6	0.0748748
67	0x3ccac58c	0.0247524
68	0x3becd8c7	0.0072279903
69	0xbcdeab6f	-0.027181355
70	0x3d34c2a2	0.04413093
71	0xbd423c4c	-0.047420785
72	0x3d89b9fd	0.067249276
73	0xbd67861c	-0.05652438
74	0xbd9d35cb	-0.07676276
75	0x3d5656f0	0.052329004
76	0xbd338bad	-0.043834377
77	0xbcc2deb6	-0.023787837
78	0xbce59de3	-0.028029388
79	0xbd86f7ea	-0.065902546
80	0x3cbffd88	0.023436323
81	0xbd2a7a06	-0.041620277
82	0x3c536f14	0.012904901
83	0x3c3d3ce7	0.011550165
84	0xbcc29d58	-0.023756668
85	0x3c2d576a	0.010579923
86	0xbd5b78c8	-0.053581983
87	0x3c8763b7	0.01652704
88	0xbc23c99d	-0.009996799
89	0xbda8a48c	-0.0823451
90	0xbd856619	-0.06513614
91	0xbd07490d	-0.03302865
92	0x3d0afa85	0.03393032
93	0x3d4b559b	0.049642187
94	0x3d63a022	0.055572636
95	0x3d8ee3f8	0.06977075
96	0x3d0aa03e	0.033844225
97	0xbd1d0f76	-0.038344823
98	0xbcfedd7e	-0.031111475
99	0x3ba4351d	0.0050112144
100	0x3d55b4cd	0.05217438
101	0x3cad8389	0.021180885
102	0xbd482ea8	-0.04887262
103	0xbc296306	-0.01033855
104	0xbcd5c462	-0.02609462
105	0xbd5cc9d1	-0.053903405
106	0x3d38ad49	0.045087133
107	0xbd8fd133	-0.070223235
108	0x3d04ad06	0.03239157
109	0xbd3cd70e	-0.04610353
110	0xbc0d561d	-0.008626488
111	0x3d49a5e6	0.04923048
112	0x3d2a14bd	0.041523684
113	0x3d6e70ce	0.058213048
114	0xbcda519c	-0.026650243
115	0x3c9aa1ea	0.018876035
116	0xbd6b5952	-0.05745823
117	0xbd1ba487	-0.037998702
118	0xbccb2ebb	-0.024802556
119	0xbd74e028	-0.059784085
120	0xbc7ca7c3	-0.015420857
121	0xbd0f52b0	-0.034990966
122	0x3d73a501	0.05948353
123	0x3b3f3194	0.0029173838
124	0xbda0f409	-0.07859046
125	0xbdb14379	-0.086554475
126	0xbd5c023d	-0.053713072
127	0x3d1d2b0f	0.038371142
128	0x3d6fea58	0.058573097
129	0xbd9d9510	-0.07694447
130	0x3daa5063	0.08316114
131	0xbd93f5b3	-0.07224598
132	0xbd0aab94	-0.033855036
133	0xbd61ab30	-0.055094898
134	0xbd81e5c3	-0.06342652
135	0xbd7f72bc	-0.06236528
136	0x3cde4767	0.027133657
137	0xbc9ecf34	-0.019385912
138	0xbd11fbd7	-0.035640564
139	0x3d72a3e7	0.05923834
140	0xbd18649b	-0.03720532
141	0x3d624bf5	0.05524822
142	0x3cd3d9ad	0.025860632
143	0xbd54d29a	-0.051958658
144	0xbc9fd478	-0.019510493
145	0xbd9adfa7	-0.075621895
146	0x3cee6d6f	0.029104916
147	0xbcbeaec9	-0.023276703
148	0x3d6966f4	0.05698295
149	0x3c7fb145	0.015606229
150	0xbd6c9e1d	-0.057767976
151	0x3d344f28	0.0440208
152	0x3d3d2efe	0.046187393
153	0xbb19c7ac	-0.002346496
154	0x3cd71021	0.026252808
155	0x3ca6e764	0.020374008
156	0xbdb04adc	-0.08608028
157	0xbd6a2101	-0.05716038
158	0x3bfe834e	0.0077671176
159	0x3d78bc99	0.060726736
160	0xbd8b4342	-0.06799938
161	0xbd63023c	-0.055422053
162	0xbdaef508	-0.0854283
163	0xbdaebd21	-0.08532167
164	0xbd208aa6	-0.039194725
165	0xbd3e86b8	-0.046515197
166	0xbdd3099c	-0.10304567
167	0xbdd15866	-0.10221939
168	0xbca82012	-0.020523105
169	0xbd1d42a7	-0.038393643
170	0xbca64e76	-0.020301085
171	0xbd6b7718	-0.057486624
172	0xbd2ba42a	-0.041904606
173	0x3d538cf1	0.051648084
174	0xbdb393cc	-0.087684244
175	0xbda2c1b0	-0.07947099
176	0xbdbcaa98	-0.09212226
177	0xbc4ad12f	-0.012378975
178	0x3c8d371f	0.017238198
179	0x3da766ae	0.081738815
180	0x3cb667f6	0.02226637
181	0x3d43acc5	0.047772188
182	0xbd3352f6	-0.04378029
183	0x3d40c5d0	0.04706365
184	0x3cab31c9	0.020897763
185	0xbdbd006f	-0.09228598
186	0x3d9ee86a	0.07759173
187	0x3d34d51c	0.04414855
188	0xbd8c2b3d	-0.068441845
189	0x3d2f3745	0.04277732
190	0xbcc43e1a	-0.023955394
191	0xbdbc00d8	-0.091798484
192	0x3c91dfca	0.017806906
193	0xbb797a3d	-0.0038067244
194	0x3d032b67	0.032023814
195	0xbd8a128b	-0.06741818
196	0xbdafd50d	-0.08585558
197	0xbd26d2ff	-0.040728565
198	0xbcdf4c58	-0.027258083
199	0xbd99351d	-0.07480834
200	0xbbe8735e	-0.007093831
201	0x3c0b944c	0.008519243
202	0x3d89455c	0.067026824
203	0xbd054368	-0.032534987
204	0xbc365051	-0.011127547
205	0xbc604f5f	-0.013690799
206	0x3d0e244c	0.034702584
207	0x3da817d2	0.08207668
208	0x39a93b04	0.00032278162
209	0xbd2d4195	-0.042298872
210	0xbd5ee950	-0.054421723
211	0xbd329855	-0.043602306
212	0x3d9e70e5	0.07736377
213	0xbc09a434	-0.0084009655
214	0xbd22c2b7	-0.039736476
215	0x3c8e821d	0.017396027
216	0xbb81335c	-0.00394289
217	0xbc3ccbcf	-0.011523201
218	0xbd9fb902	-0.07798959
219	0x3d83b4de	0.06430982
220	0x3ceb63a3	0.028734034
221	0xbdc4fefc	-0.09618947
222	0xbd7d5984	-0.061852947
223	0x3886211b	6.395784e-05
224	0x3d6365fc	0.05551718
225	0x3d4e1dc1	0.050321344
226	0xbd3470c7	-0.044052865
227	0xbdb57add	-0.08861325
228	0x3d406a9a	0.046976663
229	0x3b927f16	0.004470716
230	0xbca24835	-0.019809822
231	0x3c296e8c	0.010341298
232	0xbd41a0d3	-0.047272515
233	0x3d2416d0	0.04006082
234	0x3cd56e82	0.02605367
235	0x3c951c74	0.018202044
236	0xbc477962	-0.012174936
237	0x3cfb6d0e	0.03069165
238	0x3d3e7418	0.046497434
239	0x3d8e3c3e	0.06945084
240	0xbda2e2a6	-0.07953386
241	0xbc9f09fe	-0.019413944
242	0xbd3568f3	-0.04428954
243	0xbbd7ab78	-0.00658172
244	0x3d87e890	0.06636155
245	0xbd3a21d9	-0.045442436
246	0x3cfb8274	0.030701853
247	0x3b0d32be	0.0021545137
248	0x3d83786d	0.06419454
249	0xbd9cecff	-0.07662391
250	0xbc4c94d6	-0.012486657
251	0xbcf8e93c	-0.030384652
252	0xbd87ddab	-0.06634077
253	0x3cc3e3c5	0.02391232
254	0x3c864bf9	0.016393648
255	0xbd49800c	-0.04919438

res1.fc2.bias f4 [128]
0	0x3d03f176	0.032212697
1	0xbcdad203	-0.02671147
2	0x3d3f5132	0.046708293
3	0xbbe6bffd	-0.0070419298
4	0xbd9ce8e2	-0.07661606
5	0xbd93f91d	-0.07225249
6	0xbd888225	-0.06665448
7	0xbc537351	-0.012905912
8	0x3d21e88a	0.039528407
9	0x3bac08e0	0.0052500814
10	0x3d0497a2	0.03237117
11	0xbd7a0f9d	-0.061050046
12	0x3daf0145	0.08545164
13	0xbdd01de8	-0.10161954
14	0xbd763cdf	-0.060116645
15	0xbd957418	-0.07297534
16	0x3b5a6556	0.003332456
17	0xbcdfb573	-0.027308201
18	0x3ca657a9	0.020305471
19	0x3d6f3637	0.058401313
20	0x3b9fceb3	0.0048769354
21	0x3d7ed0a4	0.062210694
22	0xbb9c2aaf	-0.0047658305
23	0xbdcd2520	-0.10016847
24	0xbbbf08b8	-0.005829897
25	0x3baba17a	0.0052377554
26	0x3b7af913	0.0038295432
27	0x3bcde9d4	0.006283978
28	0xbd45b6dd	-0.048270095
29	0xbd8e4303	-0.06946375
30	0xbcbd3443	-0.02309621
31	0xbdbfab08	-0.093587935
32	0x3cf5b52e	0.02999362
33	0x3d1e9858	0.038719505
34	0x37f9eedb	2.9794339e-05
35	0xbcd83844	-0.026394017
36	0x3d6a521b	0.057207208
37	0x3d6c56c1	0.057699922
38	0xbd8872e8	-0.06662542
39	0xbcc0e4be	-0.023546573
40	0xbd758735	-0.059943397
41	0xbcc73c52	-0.024320755
42	0x3d641a71	0.05568928
43	0xbd9c7c10	-0.076408505
44	0x3d9f8458	0.077889144
45	0xbd0540cd	-0.032532502
46	0x3d7432a0	0.059618592
47	0xbd1421fe	-0.03616523
48	0xbc623289	-0.013805994
49	0xbbabbe54	-0.0052411947
50	0x3db63622	0.08897044
51	0x3c8aebc2	0.016958121
52	0x3d7dd5e7	0.06197157
53	0x3d557cd6	0.052121006
54	0x3d7105c3	0.058843385
55	0xbd612196	-0.05496367
56	0x3d74b673	0.05974431
57	0xbce42f6a	-0.02785464
58	0x3cf2fb1c	0.029660754
59	0x3d24ba57	0.04021677
60	0x3c2aa283	0.010414722
61	0xbd17affd	-0.03703307
62	0xbd6e31d3	-0.058152985
63	0x3ccae849	0.024768965
64	0xbb2c0fa0	-0.002625443
65	0xbd8a903f	-0.06765794
66	0x3c56b92e	0.013105674
67	0x3cc45585	0.02396656
68	0xbd8eacd0	-0.06966555
69	0x3d5e7212	0.054308005
70	0x3d079940	0.033105135
71	0x3d039370	0.03212303
72	0xbbd95661	-0.0066326116
73	0xbd1e4ef6	-0.03864952
74	0x3d93c17c	0.072146386
75	0xbd3df2e2	-0.04637421
76	0x3da4d667	0.080487065
77	0xbdb5a32c	-0.08869013
78	0xbd83cbc7	-0.06435352
79	0xbca135a5	-0.0196789
80	0x3cc90381	0.024537804
81	0x3d8bce44	0.068264514
82	0xbd68fb67	-0.05688038
83	0x3b3d565b	0.0028890583
84	0x3be58257	0.007004063
85	0xbd6c7a2a	-0.057733692
86	0xbcd180ca	-0.025574107
87	0xbd9b46a0	-0.0758183
88	0x3d74cd2c	0.05976598
89	0xbd64223c	-0.05569671
90	0xbd8753c3	-0.06607773
91	0xbd88ea2f	-0.06685292
92	0x3b906689	0.0044067544
93	0xbcc54e67	-0.024085237
94	0x3d75049e	0.059818856
95	0xbd0d8f0a	-0.03456024
96	0xbd8f3f4c	-0.06994495
97	0x3caff808	0.021480575
98	0x3d1ff3f1	0.039051
99	0x3c5f3e7c	0.013625737
100	0x3c1d0ce3	0.009585592
101	0xbd023f2f	-0.031798538
102	0x3ced8c64	0.028997608
103	0xbd0787ff	-0.03308868
104	0xbdb1f477	-0.08689206
105	0xbd33133f	-0.043719526
106	0x3cfaa214	0.030594863
107	0x3dc91a5b	0.0981948
108	0xbd8ef602	-0.06980516
109	0x3b83b1b7	0.004018988
110	0xbcdc0b07	-0.026860727
111	0xbd6c5a79	-0.05770347
112	0xbcef20a7	-0.029190375
113	0x3dcaf7f0	0.099105716
114	0xbd9c8b7b	-0.07643791
115	0x3c10f0f5	0.008846511
116	0x3cc4828d	0.023988033
117	0xbd4d531f	-0.0501281
118	0xbd580ed4	-0.052748516
119	0xbd82ddef	-0.06389987
120	0x3ce936db	0.02846854
121	0xbdcaf3b7	-0.09909766
122	0xbd08076f	-0.033210214
123	0x3cf456b7	0.029826505
124	0x3db2e24a	0.087345675
125	0xbb870423	-0.004120366
126	0xbdb126df	-0.08649992
127	0xbb987f22	-0.0046538273

res2.fc1.weight f4 [128, 128]
0	0xbd976757	-0.073927574
1	0xbd8b0d22	-0.06789614
2	0x3abae155	0.0014257828
3	0x3cc7197e	0.024304148
4	0xbb2509fc	-0.0025182953
5	0xbc177e27	-0.009246386
6	0x3cff7206	0.0311823
7	0x3b8b1256	0.004244129
8	0x3cdea2cc	0.027177237
9	0xbd3c0591	-0.045903746
10	0x3d0766db	0.033057075
11	0x3ce5620c	0.028000854
12	0x3d87c90a	0.06630142
13	0xbdc68508	-0.096933424
14	0xbda5fcb8	-0.08104843
15	0x3d83be28	0.06432754
16	0x3d51dfb2	0.051238723
17	0xbd60e538	-0.0549061
18	0xbcab99bf	-0.020947335
19	0x3d876e00	0.06612778
20	0x3d09412d	0.033509422
21	0x3d237fd8	0.039916843
22	0xbdc3f620	-0.09568429
23	0xbd075f56	-0.033049904
24	0xbd5dac2d	-0.054119278
25	0xbb27cf08	-0.0025605578
26	0x3d5e2266	0.054232024
27	0xbbc734e0	-0.0060793012
28	0xbd77ef37	-0.060530867
29	0x3d4f28a6	0.050575875
30	0xbc8ff958	-0.017574951
31	0x3d3c79c5	0.046014566
32	0xbda06d1d	-0.07833312
33	0xbb2092f2	-0.0024501649
34	0x3d926965	0.07149009
35	0xbdc6ba43	-0.09703495
36	0xbd96e649	-0.07368142
37	0x3c7d4ea2	0.015460642
38	0xbc308d8f	-0.010775938
39	0xbc832fda	-0.016014028
40	0x3d91f026	0.07125883
41	0x3d796f6c	0.060897276
42	0x3cd323d2	0.025773916
43	0xbc9994cc	-0.01874771
44	0xbc86eb0a	-0.016469497
45	0x3d1e026b	0.038576525
46	0xbc057fb3	-0.008148122
47	0x3d83e910	0.064409375
48	0xbc47f0c1	-0.012203396
49	0x3d433a54	0.047663048
50	0xbd1108df	-0.03540885
51	0xbd126525	-0.03574099
52	0xbdcef056	-0.10104434
53	0x3cc5cf24	0.024146624
54	0x3ca0c578	0.01962541
55	0xbcd7f815	-0.026363412
56	0xbc5ab560	-0.013348907
57	0xbd042653	-0.03226311
58	0x3caa02ca	0.020753283
59	0x3d622cb5	0.055218417
60	0xbc9a7fdd	-0.018859798
61	0x3d69c562	0.057073005
62	0x3cb2c608	0.021822944
63	0xbbecefe2	-0.0072307447
64	0xbda0e0c3	-0.0785537
65	0x3d7c7f2a	0.06164471
66	0xbd95ac01	-0.07308198
67	0xbdd24a02	-0.10268022
68	0x3bc52406	0.006016257
69	0xbcbe33aa	-0.023217995
70	0xbdc27c6b	-0.09496387
71	0xbd991bd7	-0.07476013
72	0xbdb2795a	-0.08714552
73	0xbd4a39d5	-0.04937156
74	0x3c8e59d4	0.017376818
75	0xbd84c5dc	-0.06483051
76	0xbda1c696	-0.078992054
77	0x3ce46f6d	0.027885163
78	0xbd7292ea	-0.05922214
79	0xbdaad36a	-0.08341105
80	0x3d0e3a88	0.03472379
81	0x3cde21b4	0.02711568
82	0xbd5891ff	-0.052873608
83	0xbd77c19a	-0.060487367
84	0x3cd1aee7	0.025596095
85	0xbcddb0be	-0.027061816
86	0x3bfe44cd	0.0077596665
87	0x3d534106	0.051575683
88	0xbce16bc1	-0.027517201
89	0x3c3754ee	0.011189682
90	0x3b3c4d05	0.002873243
91	0xbd644164	-0.055726424
92	0xbd1808cb	-0.03711776
93	0xba842446	-0.0010081611
94	0xbdc322b3	-0.09528103
95	0x3ce12935	0.02748547
96	0xbc7e4e4e	-0.015521599
97	0xbc2280fb	-0.009918447
98	0xbd19e64c	-0.037573144
99	0x3c80d337	0.015725715
100	0xbaed9bc3	-0.0018128086
101	0x3d817f9a	0.06323166
102	0xbd6aa0f1	-0.057282392
103	0xbcebe12b	-0.028793892
104	0xbc184cc8	-0.00929565
105	0x3d990fc0	0.07473707
106	0xbdb61781	-0.08891202
107	0x3cb8e103	0.022568231
108	0xbc7361d5	-0.014854868
109	0xbcab23f2	-0.020891163
110	0x3d816cdd	0.06319592
111	0x3c08edf3	0.008357513
112	0xbdb69d25	-0.08916692
113	0x3d5b4d39	0.053540442
114	0xbd9f1996	-0.07768552
115	0x3d90be4b	0.070675455
116	0xbda67463	-0.08127668
117	0x3c53de33	0.012931394
118	0xbd12dfd5	-0.035857994
119	0xbd5013d9	-0.05080018
120	0xbd13cd63	-0.036084544
121	0xbd1267a5	-0.035743374
122	0x3c10ee0e	0.008845819
123	0x3ccca9d1	0.024983319
124	0x3cdafa2a	0.026730616
125	0x3d94f158	0.07272595
126	0x3caf2527	0.02138002
127	0x3cc69f15	0.024245778
128	0xbd91ec82	-0.071251884
129	0xbbf3c015	-0.0074386694
130	0x3dd0a297	0.101872616
131	0x3cba5d0d	0.022749448
132	0x3d84e649	0.06489236
133	0x3d653356	0.05595716
134	0x3d240861	0.040047053
135	0xbd4e7556	-0.05040487
136	0xbbb5ac66	-0.005544233
137	0xbcc81a6c	-0.024426661
138	0xbd555c8d	-0.052090216
139	0x3db4ef7e	0.08834742
140	0x3db2f6f4	0.08738509
141	0xbd91b671	-0.07114876
142	0xbd2a079c	-0.041511163
143	0xbc2c01cc	-0.010498475
144	0xbca229ab	-0.01979526
145	0x3d07dd88	0.033170253
146	0xbd89b69d	-0.06724284
147	0xbd7a4c73	-0.061108064
148	0xbd91cd86	-0.071192786
149	0xbd645384	-0.05574371
150	0x3da151e8	0.078769505
151	0x3da9e462	0.08295514
152	0xbd8d7ea2	-0.06908919
153	0xbca981c2	-0.020691756
154	0x3b6afdf1	0.0035856927
155	0xbd3bf545	-0.045888204
156	0xbd8f32d0	-0.069921136
157	0x3cffd101	0.03122759
158	0xbd9ea988	-0.07747179
159	0xbc44a330	-0.012001798
160	0x3cab237e	0.020890947
161	0x3ca0d3f8	0.019632325
162	0x3daab20f	0.08334743
163	0x3dba1186	0.090853736
164	0x3cffaa18	0.031209037
165	0x3d746f85	0.059676666
166	0xbc94ca76	-0.018162947
167	0xbc82a0a3	-0.015945738
168	0xbd8ae769	-0.06782419
169	0x3d422bb7	0.04740497
170	0x3d09bd3e	0.03362774
171	0x3db86e8f	0.090054624
172	0x3d365532	0.044514842
173	0x3dccc0ce	0.09997712
174	0x3d0bacd9	0.034100387
175	0xbd8e4879	-0.06947417
176	0x3d2ee97f	0.042703148
177	0x3c3a979f	0.011388688
178	0x3dc5bd65	0.09655265
179	0xbd2bd550	-0.041951478
180	0x3dc85024	0.097809106
181	0x3d795964	0.060876265
182	0x3c6ac9b7	0.014330319
183	0xbda743cd	-0.08167229
184	0x3bbc200f	0.0057411264
185	0x3c5d3cfa	0.0135033075
186	0x3dca3d52	0.09874977
187	0xbcdff630	-0.027339071
188	0x3d9db806	0.07701115
189	0x3dcb4eca	0.09927137
190	0x3d689090	0.05677849
191	0x3d9f33d8	0.0777356
192	0xbbd8cddf	-0.0066163386
193	0x3aa2cba2	0.0012420306
194	0x3d8b14d6	0.067910835
195	0x3c7408f7	0.0148947155
196	0xbd828046	-0.063721225
197	0x3d6c3725	0.057669777
198	0x3d14f5fb	0.036367398
199	0xbc780262	-0.015137287
200	0xbcdf3148	-0.027245179
201	0x3d56c16a	0.052430548
202	0x3d7a3936	0.061089717
203	0x3dbc6dec	0.092006534
204	0x3d1b66d8	0.037939876
205	0x3d909457	0.070595436
206	0xbd8b5799	-0.06803817
207	0x3d08ea71	0.033426706
208	0xbd4d611d	-0.050141443
209	0x3dadac7d	0.08480165
210	0x3d34ba72	0.04412312
211	0xbd240b79	-0.040050004
212	0x3ccae5d9	0.024767803
213	0xbc901ee4	-0.017592855
214	0x3d4876e4	0.048941508
215	0x3d229602	0.03969384
216	0x3baf2375	0.005344803
217	0x3c6d231b	0.014473702
218	0xbb48bf22	-0.0030631502
219	0xbd0cbd4b	-0.03436021
220	0x3db545d1	0.08851207
221	0x3d885507	0.06656843
222	0x3cc19b12	0.023633514
223	0x3d99254c	0.07477817
224	0xbd9e1cc2	-0.07720329
225	0x3d6ee2b9	0.05832169
226	0x3db86e1d	0.090053774
227	0x3da397ba	0.07987924
228	0x3d46dcf8	0.048550576
229	0x3d087aab	0.03332011
230	0x3cb4d46f	0.022073952
231	0xbd948661	-0.07252193
232	0xbcdcab86	-0.026937257
233	0xbd80ef10	-0.062955976
234	0x3c169acc	0.00919218
235	0x3db6a338	0.0891785
236	0xbd5fe1a5	-0.05465855
237	0x3d099e19	0.03359804
238	0x3c8556a6	0.016276669
239	0xbd4cf911	-0.050042216
240	0xbd13c620	-0.03607762
241	0xbd3edc3e	-0.046596758
242	0x3d46c72c	0.04852979
243	0xbcca4dea	-0.024695355
244	0xbd173130	-0.036912143
245	0xbb6d18be	-0.0036178078
246	0xbc0e8274	-0.008698095
247	0xbd2a2098	-0.04153499
248	0x3d377429	0.044788513
249	0xbc8a801d	-0.016906792
250	0xbd85b5ba	-0.06528802
251	0x3be8cc3e	0.0071044257
252	0x3bd29853	0.00642685
253	0xbce13381	-0.02749038
254	0xbc5f8a8c	-0.013643872
255	0xbcae9392	-0.021310601

res2.fc1.bias f4 [128]
0	0x3d5421e9	0.05179015
1	0x3ce9c8c5	0.028538117
2	0x3ad981d4	0.0016594478
3	0x3bf8c72c	0.0075921025
4	0x3c8cf5b0	0.017206997
5	0xbd48cd67	-0.049024012
6	0x3da4fcd3	0.08056035
7	0xbc2808f6	-0.010256043
8	0x3d6a4fd1	0.057205025
9	0x3d636bd5	0.05552276
10	0x3b5ce217	0.0033704096
11	0xbd0587e8	-0.032600313
12	0x3cad93c8	0.021188632
13	0xbb111ae9	-0.0022141284
14	0xbd224494	-0.039616182
15	0xbcb1b8b4	-0.021694519
16	0xbdb3077f	-0.08741664
17	0xbc082a08	-0.008310802
18	0x3c3decdf	0.011592119
19	0xbc887c17	-0.016660733
20	0xbc47a468	-0.012185194
21	0xbcb36996	-0.021900933
22	0xbd44e91f	-0.048073884
23	0x3d3505cf	0.044194993
24	0xbda46f7a	-0.08029075
25	0x3c8eac2e	0.017416086
26	0x3d74d9e2	0.0597781
27	0x3d1ca952	0.038247414
28	0x3d960ef9	0.073270746
29	0xbc8d813f	-0.017273543
30	0xbd5f7899	-0.05455837
31	0x3d81faa2	0.063466325
32	0x3cc84a15	0.024449388
33	0xbdb520da	-0.088441566
34	0xbd90d4bc	-0.07071826
35	0xbd390761	-0.045173053
36	0x3dd8095b	0.105486594
37	0xbd9dc3ad	-0.07703338
38	0x3d1d5056	0.038406692
39	0xbdbabb7b	-0.0911779
40	0x3c5721fe	0.013130663
41	0x3d53adda	0.05167947
42	0xbcc9a578	-0.024615034
43	0x3dcd1c9d	0.10015223
44	0x3d4a53d9	0.04939637
45	0xbc82c133	-0.015961265
46	0x3d16e451	0.036838833
47	0xbd9990b6	-0.074983045
48	0x3dd36c0f	0.10323345
49	0xbd6a4181	-0.057191376
50	0x3d846938	0.064653814
51	0x3d60d3aa	0.05488936
52	0xbca333fb	-0.019922247
53	0x3d933ef9	0.071897455
54	0xbd69d3c4	-0.05708672
55	0xbda98b15	-0.08278481
56	0x3da3f6bf	0.080060475
57	0x3d4ba297	0.049715605
58	0xbd40b263	-0.047045123
59	0xbc464738	-0.012101941
60	0x3d4543d1	0.048160378
61	0x3d11e6f9	0.035620663
62	0xbdaef17c	-0.08542153
63	0xbda9c16c	-0.082888454
64	0x3d4d1d75	0.05007692
65	0x3da24e8a	0.079251364
66	0xbd610244	-0.0549338
67	0xbdd94b4f	-0.10610067
68	0xbd597785	-0.0530925
69	0xbd6afdd6	-0.057370983
70	0xbd4fc92a	-0.050728954
71	0x3ccb554b	0.024820944
72	0xbd8046b4	-0.062634856
73	0xbda46bd7	-0.08028381
74	0x3d228a66	0.03968277
75	0xbd6b860c	-0.057500884
76	0x3d9d560e	0.07682429
77	0x3c976dde	0.018485006
78	0xbd0d86d8	-0.034552425
79	0x3d747d05	0.05968954
80	0xbd72b908	-0.05925849
81	0xba95c080	-0.0011425167
82	0xbbea674a	-0.0071534263
83	0x3d937f07	0.07201963
84	0x3d4b01ac	0.04956214
85	0x3d1c540e	0.0381661
86	0x3c23475d	0.009965745
87	0xbd0274fa	-0.03184984
88	0xbcd725e7	-0.02626319
89	0xbc8632b0	-0.016381592
90	0x3c647bf6	0.01394557
91	0xbda45a4d	-0.08025036
92	0xbd36a2b1	-0.04458875
93	0x3be6b8a3	0.0070410534
94	0xbca92aac	-0.02065023
95	0x3c92634b	0.017869612
96	0xbdc19fdf	-0.09454321
97	0xbd549a4e	-0.05190497
98	0xbd874945	-0.06605772
99	0x3da0ad4f	0.07845556
100	0x3d200786	0.039069675
101	0xbd021fca	-0.031768598
102	0x3b70fee4	0.003677302
103	0x3d95d2fe	0.07315634
104	0xbba2efcc	-0.0049724337
105	0x3d1cb529	0.038258705
106	0x3d8e6667	0.069531254
107	0xbdb09ea6	-0.0862401
108	0xbc47a279	-0.012184733
109	0xbdca7fba	-0.09887643
110	0x3ce2f98b	0.027706882
111	0xbd9c2ee1	-0.07626129
112	0xbca45f7f	-0.020065067
113	0xbb103022	-0.0022001346
114	0x3d8c5436	0.068519995
115	0x3c8f1077	0.017463906
116	0xbd87de80	-0.066342354
117	0xbd6175b9	-0.05504391
118	0xbd9f98a9	-0.077927895
119	0xbcaa0f8c	-0.020759366
120	0x3caf84e7	0.021425677
121	0x3c80fbc4	0.015745051
122	0x3d673c23	0.056453835
123	0x3db3463f	0.08753633
124	0x3da645e5	0.081188
125	0xbd45be62	-0.048277266
126	0xbb53ee5c	-0.0032338118
127	0x3ca977ae	0.02068695

res2.fc2.weight f4 [128, 128]
0	0x3cbfb2bc	0.023400657
1	0x3ccf72f4	0.025323369
2	0x3d126cb1	0.035748187
3	0x3d47bbf0	0.048763216
4	0xbba635ca	-0.00507233
5	0x3d9823e8	0.074287236
6	0x3bb04d09	0.005380277
7	0xbc329011	-0.010898606
8	0xbbaf6698	-0.0053528063
9	0x3d832e73	0.06405344
10	0xbb486630	-0.0030578487
11	0xbd93f788	-0.07224947
12	0xbda60528	-0.08106452
13	0x3d2d576a	0.042319693
14	0x3c825f05	0.01591445
15	0xbd6cc1e4	-0.057802096
16	0x3cf82bb7	0.030294282
17	0x3bfb02a0	0.007660225
18	0xbd85b54e	-0.06528722
19	0x3d2b1ca0	0.041775346
20	0x3c9f0719	0.019412564
21	0xbc8660bf	-0.016403554
22	0x3d945c82	0.07244207
23	0xbd871e76	-0.06597607
24	0x3b4132f6	0.0029479838
25	0xbd90a5e2	-0.0706289
26	0x3d7db487	0.061939742
27	0xbd332d44	-0.04374434
28	0xbd532b69	-0.05155507
29	0x3d8eb968	0.06968957
30	0x3d9f1e0b	0.07769402
31	0xbd224ff8	-0.039627045
32	0x3d484be5	0.048900504
33	0x3da0d616	0.07853334
34	0xbdac42bb	-0.08411165
35	0xbd3af3c8	-0.045642644
36	0xbd6aac5a	-0.057293274
37	0x3cea9c09	0.028638856
38	0xbc9e55e3	-0.019328063
39	0xbda9edb6	-0.08297293
40	0xbd888862	-0.06666638
41	0x3d88aedd	0.066739775
42	0xbd86083d	-0.0654454
43	0x3daa48da	0.083146766
44	0xbcd0b706	-0.025477897
45	0xbd855017	-0.065094166
46	0xbd1a1f22	-0.037627347
47	0xbd6d512f	-0.05793875
48	0xbd8e743c	-0.06955764
49	0x3b858bba	0.0040754946
50	0x3db530ff	0.08847236
51	0x3a2e5e3c	0.0006651615
52	0xbd39be2a	-0.04534737
53	0xbc24ee7f	-0.0100666275
54	0xbdad5f95	-0.084654965
55	0x3d04056d	0.032231737
56	0x3c9a2efc	0.018821232
57	0x3b29dad3	0.0025917783
58	0xbd034bc7	-0.03205469
59	0x3d3ffea3	0.0468737
60	0xbbb6b23c	-0.0055754464
61	0x3d3a5f42	0.045501
62	0xbc95c366	-0.01828165
63	0x3d7151f1	0.058916036
64	0x3cd9d173	0.026589131
65	0xbd17b376	-0.03703638
66	0xbd9a1b71	-0.07524765
67	0x3d9bee23	0.0761378
68	0x3c6265f6	0.013818255
69	0x3d21fc5b	0.039547306
70	0x3d46b21d	0.048509706
71	0x3d07050c	0.032963797
72	0xbcc7e6f9	-0.024402129
73	0xbd811b53	-0.0630404
74	0xbcb520be	-0.02211034
75	0x3d415056	0.047195755
76	0xbcdbd318	-0.026834056
77	0x3d971003	0.07376101
78	0xbd91c6a8	-0.07117969
79	0xbd51490a	-0.051095046
80	0xbd7fc178	-0.062440366
81	0xbd07f95d	-0.033196796
82	0xbd706a44	-0.058695093
83	0xbc9516fc	-0.018199436
84	0xbd8ace9d	-0.067776896
85	0x3c4f8598	0.012666129
86	0x3b2d4c2c	0.0026443107
87	0x3d18f67f	0.037344452
88	0x3d9b35cd	0.07578621
89	0x3daae3dd	0.08344243
90	0xbd202057	-0.03909334
91	0x3d4fd7b2	0.050742812
92	0x3d1cd130	0.038285434
93	0x3bacc961	0.0052730297
94	0xbd9684f0	-0.073495746
95	0x3d3735b5	0.044728953
96	0xbd3362f3	-0.043795537
97	0x3d03f0d9	0.032212112
98	0xbdaf39a1	-0.08555914
99	0xbc9ba28d	-0.018998409
100	0x3d66e3c3	0.056369554
101	0x3c541b92	0.012946026
102	0xbbc0ea8c	-0.005887335
103	0x3da4783e	0.08030747
104	0x3a19825b	0.00058559113
105	0xbc7ae532	-0.0153134335
106	0xbd877307	-0.066137366
107	0x3d94f8fc	0.072740525
108	0x3d849eee	0.06475626
109	0x3da19ea5	0.07891587
110	0x3bdb2251	0.0066874404
111	0xbdb39678	-0.08768934
112	0xbc5c6d47	-0.013453788
113	0xbcd8ebc7	-0.026479615
114	0xbd5e3c9b	-0.054257017
115	0xbd684326	-0.056704663
116	0x3cdda629	0.02705677
117	0x3da33f84	0.07971099
118	0xbd8b827b	-0.068119965
119	0xbd8cbc84	-0.06871894
120	0xbc88e0d5	-0.01670877
121	0xbd76ce55	-0.060255367
122	0x3d732bf7	0.0593681
123	0xbd1c39d9	-0.038141105
124	0x3c7c697e	0.015406011
125	0x3d229577	0.039693322
126	0xbd5f9bc0	-0.054591894
127	0xbdad1a8f	-0.08452331
128	0x3d80c99f	0.06288456
129	0x3d70be82	0.058775432
130	0x3d493b97	0.049129095
131	0x3d0b414e	0.033997826
132	0x3c1c6b53	0.009547072
133	0x3d93895c	0.072039336
134	0x3b147de2	0.002265804
135	0x3d5b5709	0.0535498
136	0x3d832c6f	0.064049594
137	0x3d2cd0e7	0.042191412
138	0xbd25c484	-0.040470615
139	0xbd008fa5	-0.03138699
140	0xbd6429ed	-0.055704046
141	0x3d8e002d	0.06933627
142	0xbcbcaa44	-0.023030408
143	0xbc9b43c9	-0.01895322
144	0x3cbbf372	0.022943232
145	0xbc891fc7	-0.016738785
146	0xbcfd962d	-0.030955398
147	0x3d5c4679	0.053778145
148	0xbda481d4	-0.08032575
149	0xbd11699d	-0.03550111
150	0x3d66dbe8	0.056362063
151	0x3d39c397	0.045352545
152	0xbc7112a1	-0.014713914
153	0xbd7f6038	-0.06234762
154	0x3c0f974d	0.0087641
155	0xbd0bc68a	-0.03412489
156	0xbca3e45d	-0.020006353
157	0x3d42debb	0.047575694
158	0xbd40a1dc	-0.04702936
159	0x3c3f51f9	0.011677259
160	0xbd6d9c7e	-0.05801057
161	0x3d17f6e3	0.037100684
162	0xbd3092f3	-0.04310889
163	0xbd8989e1	-0.067157514
164	0x3d75eee5	0.06004228
165	0xbd8b5fb0	-0.0680536
166	0xbd88d1c6	-0.06680636
167	0xbdb14309	-0.08655364
168	0x3d91a643	0.0711179
169	0x3c43f0ac	0.011959236
170	0xbdb2149b	-0.086953364
171	0x3b08ef31	0.0020894522
172	0x3d119021	0.035537843
173	0x3d8e75f7	0.06956094
174	0xbda3191f	-0.07963776
175	0x3c3c6e6d	0.011500937
176	0x3b94177f	0.0045194025
177	0x3cd4a62f	0.025958149
178	0xbd060e20	-0.032728314
179	0x3ca56079	0.020187603
180	0xbdad5383	-0.08463194
181	0x3da222ac	0.079167694
182	0xbbf5c58f	-0.0075003575
183	0xbd6aa8c2	-0.057289846
184	0xbcf03a2e	-0.029324617
185	0x3d93946b	0.07206043
186	0x3ce8c389	0.02841355
187	0x3dac002c	0.0839847
188	0x3ce8248a	0.028337736
189	0xbd529b9c	-0.051417932
190	0xbbee497c	-0.0072719436
191	0xbd95a8ab	-0.073075615
192	0x3d6c5007	0.057693508
193	0x3d9c89be	0.0764346
194	0x3d72d520	0.059285283
195	0x3cad8172	0.021179888
196	0xbd13f2f5	-0.036120374
197	0xbd38fc55	-0.045162518
198	0x3d507d94	0.05090101
199	0xbd34752f	-0.044057067
200	0xba72a593	-0.000925624
201	0x3d17f452	0.037098236
202	0x3cb7c798	0.02243404
203	0xbd14e3db	-0.036350112
204	0xbc1c8e5f	-0.009555428
205	0xbcfc04d7	-0.030764027
206	0xbd1119a5	-0.035424847
207	0xbcd428e8	-0.025898412
208	0x3cbc4dd0	0.022986323
209	0xbd590d91	-0.052991454
210	0x3db02cf7	0.08602326
211	0x3d3b540a	0.045734443
212	0x3bf323c8	0.007420037
213	0xbd3612b9	-0.04445145
214	0x3d0c44ba	0.03424523
215	0xbd5ed8df	-0.054406043
216	0xbd3f6f87	-0.04673722
217	0xbc3a16fd	-0.01135802
218	0xbcdb9ce9	-0.026808219
219	0x3d98897c	0.07448098
220	0x3c684a13	0.014177817
221	0x3da179e3	0.07884576
222	0x3d4c1869	0.049827967
223	0xbdca15ad	-0.098674156
224	0xbd1ffbbc	-0.039058432
225	0xbbcaf030	-0.0061931834
226	0x3c6462bd	0.013939557
227	0x3c0b4231	0.008499668
228	0x3d7d2fe7	0.06181326
229	0xbd90f1f8	-0.07077402
230	0x3ca2597b	0.019818058
231	0x3d2b8ab5	0.04188033
232	0xbd1ed319	-0.038775537
233	0x3b1a0e90	0.0023507215
234	0x399f5686	0.00030391308
235	0xbd9d64cb	-0.0768524
236	0xbd23084a	-0.039802827
237	0x3d816b6f	0.063193195
238	0xbca91ba2	-0.02064306
239	0xbcd27c3f	-0.02569401
240	0xbc9c2bf3	-0.019063925
241	0xbdd1430f	-0.102178685
242	0x3d37ecc1	0.04490352
243	0x3d3603c9	0.044437204
244	0x3da0117c	0.07815835
245	0x3d4b7d8e	0.049680285
246	0xbcd5c3fe	-0.026094433
247	0xbbae020c	-0.0053103026
248	0xbd3966ff	-0.04526424
249	0xbd9a20c6	-0.07525782
250	0x3d799b46	0.060939096
251	0x3ce0a0ed	0.027420485
252	0x3cde4197	0.027130885
253	0xbdc73c82	-0.09728338
254	0xbda422f2	-0.08014478
255	0x3d7f2824	0.06229414
